src/grip_model_s.tflite (tflite, 39392 bytes, 4 tensors)

tfl.pseudo_qconst1 i1 [6, 64]
6 30 10 -9 14 -64 108 -26
-54 -26 23 -81 56 -63 83 28
-47 -38 50 -18 -55 -43 -11 -18
34 52 -14 -64 -20 -62 -66 83
45 -4 -20 41 56 -23 37 -68
40 79 -30 -61 21 86 -2 -23
17 16 29 40 31 45 -27 -55
30 -21 63 96 20 54 -21 127
77 67 69 -1 -53 -80 30 76
-43 72 -37 16 28 44 29 -83
-69 60 5 116 10 -61 -25 25
97 40 51 49 1 47 27 -127
87 50 -66 62 105 -105 -71 -59
100 62 63 -74 71 -124 -72 -11
-65 -88 -60 51 -70 77 86 63
26 -42 -26 -60 -44 -87 68 -58
56 -24 63 76 89 47 103 -46
79 57 45 -67 6 -30 -95 15
-31 16 48 -49 76 4 -10 -90
-68 -54 -54 67 -68 11 -73 66
13 -1 -23 -32 119 1 94 -29
74 -64 -65 -41 -63 112 127 17
77 -75 60 25 -52 53 61 42
11 82 76 50 56 -53 -53 43
17 -94 74 5 -47 10 -110 -10
-49 17 -92 -92 56 -55 43 1
80 55 -121 -1 5 53 74 55
-105 92 64 -27 -127 47 -61 7
44 -51 48 -82 -104 22 -71 78
55 61 49 -10 4 46 -106 88
63 22 -81 -43 -32 36 -41 -66
-119 -47 -82 -114 -27 7 33 -94
00000000: 061e 0af7 0ec0 6ce6 cae6 17af 38c1 531c
00000010: d1da 32ee c9d5 f5ee 2234 f2c0 ecc2 be53
00000020: 2dfc ec29 38e9 25bc 284f e2c3 1556 fee9
00000030: 1110 1d28 1f2d e5c9 1eeb 3f60 1436 eb7f
00000040: 4d43 45ff cbb0 1e4c d548 db10 1c2c 1dad
00000050: bb3c 0574 0ac3 e719 6128 3331 012f 1b81
00000060: 5732 be3e 6997 b9c5 643e 3fb6 4784 b8f5
00000070: bfa8 c433 ba4d 563f 1ad6 e6c4 d4a9 44c6
00000080: 38e8 3f4c 592f 67d2 4f39 2dbd 06e2 a10f
00000090: e110 30cf 4c04 f6a6 bcca ca43 bc0b b742
000000a0: 0dff e9e0 7701 5ee3 4ac0 bfd7 c170 7f11
000000b0: 4db5 3c19 cc35 3d2a 0b52 4c32 38cb cb2b
000000c0: 11a2 4a05 d10a 92f6 cf11 a4a4 38c9 2b01
000000d0: 5037 87ff 0535 4a37 975c 40e5 812f c307
000000e0: 2ccd 30ae 9816 b94e 373d 31f6 042e 9658
000000f0: 3f16 afd5 e024 d7be 89d1 ae8e e507 21a2

tfl.pseudo_qconst3 i1 [64, 80]
45 -50 34 33 36 21 21 19
-53 15 -16 -40 0 54 -19 -85
-109 74 -76 73 44 59 -46 -72
-96 1 -37 24 10 28 127 63
60 -28 -44 39 -45 -40 -87 7
-119 80 64 -52 12 -43 85 -40
36 43 44 -46 34 6 26 -63
-68 -11 -27 28 -43 -65 80 -33
5 108 -88 -30 12 58 49 -15
8 -48 32 79 -85 -39 -50 34
-3 61 44 33 -14 2 -113 -24
74 -8 -99 -21 -67 93 51 0
54 53 -18 90 38 -22 66 -33
29 -52 14 -14 -23 3 -94 55
-33 -51 108 -59 40 41 -7 -85
19 -1 31 87 -10 -56 20 -127
-31 4 30 60 -65 15 44 -15
2 32 110 -27 44 23 12 52
10 -115 4 -83 22 -51 -18 -2
43 26 -47 -43 -60 47 -2 -25
23 28 -2 9 58 -38 -25 53
115 -65 -17 2 44 -127 -11 22
28 22 -2 17 -13 43 33 44
-80 -29 -21 54 -37 -29 -62 62
43 -35 -91 52 28 30 -46 15
-10 4 39 12 45 -31 -46 42
8 -50 52 -7 78 2 17 48
14 18 23 -34 -53 42 69 -26
13 12 -86 -52 14 -42 -19 -27
-38 2 -5 -62 5 -25 -11 6
23 -44 5 -58 -67 22 -24 34
-122 64 -42 -30 -41 76 37 28
00000000: 2dce 2221 2415 1513 cb0f f0d8 0036 edab
00000010: 934a b449 2c3b d2b8 a001 db18 0a1c 7f3f
00000020: 3ce4 d427 d3d8 a907 8950 40cc 0cd5 55d8
00000030: 242b 2cd2 2206 1ac1 bcf5 e51c d5bf 50df
00000040: 056c a8e2 0c3a 31f1 08d0 204f abd9 ce22
00000050: fd3d 2c21 f202 8fe8 4af8 9deb bd5d 3300
00000060: 3635 ee5a 26ea 42df 1dcc 0ef2 e903 a237
00000070: dfcd 6cc5 2829 f9ab 13ff 1f57 f6c8 1481
00000080: e104 1e3c bf0f 2cf1 0220 6ee5 2c17 0c34
00000090: 0a8d 04ad 16cd eefe 2b1a d1d5 c42f fee7
000000a0: 171c fe09 3ada e735 73bf ef02 2c81 f516
000000b0: 1c16 fe11 f32b 212c b0e3 eb36 dbe3 c23e
000000c0: 2bdd a534 1c1e d20f f604 270c 2de1 d22a
000000d0: 08ce 34f9 4e02 1130 0e12 17de cb2a 45e6
000000e0: 0d0c aacc 0ed6 ede5 da02 fbc2 05e7 f506
000000f0: 17d4 05c6 bd16 e822 8640 d6e2 d74c 251c

tfl.pseudo_qconst5 i1 [80, 200]
-56 -9 41 -87 -9 -71 -2 -29
-24 -64 -6 43 -13 -13 7 2
1 10 21 17 -15 -70 20 -16
9 -7 90 28 -21 36 -8 10
30 15 16 -21 -24 -48 16 15
34 -11 13 -11 -24 4 24 12
-32 -3 1 -1 24 2 -7 46
3 -28 7 43 15 56 -59 -1
39 -3 -51 21 0 21 59 -5
-9 9 33 12 -39 1 24 -62
14 14 22 -6 10 30 23 35
9 40 15 68 -25 -35 4 2
40 -9 -20 15 5 -30 19 17
-64 28 23 47 -1 42 -32 44
-41 -18 52 -17 127 -1 -20 -12
53 1 -30 -12 72 -24 -13 -39
7 24 -19 -22 5 25 12 -17
0 -46 4 8 -8 29 35 -4
-9 25 -28 7 -20 50 -97 -18
38 3 20 42 -6 -4 18 -11
-34 -1 5 17 -37 24 -17 12
-1 -18 3 -42 -12 17 -26 32
63 38 18 68 -1 -7 -15 44
-20 -35 -99 46 9 68 -61 -38
60 -51 -17 11 13 -48 -11 40
19 6 14 48 -20 25 7 -21
21 -33 2 -12 11 37 -1 -10
13 9 2 -7 3 27 -23 7
-5 9 35 -21 -37 -1 2 -28
2 27 11 10 20 54 -7 19
-26 20 14 -15 0 12 -11 -12
-19 14 2 -3 -21 13 7 19
00000000: c8f7 29a9 f7b9 fee3 e8c0 fa2b f3f3 0702
00000010: 010a 1511 f1ba 14f0 09f9 5a1c eb24 f80a
00000020: 1e0f 10eb e8d0 100f 22f5 0df5 e804 180c
00000030: e0fd 01ff 1802 f92e 03e4 072b 0f38 c5ff
00000040: 27fd cd15 0015 3bfb f709 210c d901 18c2
00000050: 0e0e 16fa 0a1e 1723 0928 0f44 e7dd 0402
00000060: 28f7 ec0f 05e2 1311 c01c 172f ff2a e02c
00000070: d7ee 34ef 7fff ecf4 3501 e2f4 48e8 f3d9
00000080: 0718 edea 0519 0cef 00d2 0408 f81d 23fc
00000090: f719 e407 ec32 9fee 2603 142a fafc 12f5
000000a0: deff 0511 db18 ef0c ffee 03d6 f411 e620
000000b0: 3f26 1244 fff9 f12c ecdd 9d2e 0944 c3da
000000c0: 3ccd ef0b 0dd0 f528 1306 0e30 ec19 07eb
000000d0: 15df 02f4 0b25 fff6 0d09 02f9 031b e907
000000e0: fb09 23eb dbff 02e4 021b 0b0a 1436 f913
000000f0: e614 0ef1 000c f5f4 ed0e 02fd eb0d 0713

tfl.pseudo_qconst7 i1 [200, 24]
-50 70 -121 -84 -21 66 73 117
127 63 -61 90 -42 -46 -78 27
62 24 -73 22 26 -80 58 89
-1 -11 -23 78 -127 -3 -7 63
-3 -81 -10 102 32 86 98 38
-95 -28 30 120 -23 42 93 -38
-35 39 48 -92 44 -3 -44 -19
-21 41 -42 13 -66 -113 27 -119
-22 21 49 42 -127 -18 3 81
92 77 -64 -62 -80 -32 -39 -2
30 -127 -94 27 20 58 -10 49
18 72 48 12 -28 -32 33 -102
81 -68 80 -73 50 85 -100 -45
74 95 -82 -108 -16 35 -86 -52
-101 127 78 -35 0 57 67 98
91 57 -104 18 -27 17 7 -63
-38 -41 10 -6 -47 -5 -127 20
-56 32 96 -23 81 -84 -79 -20
108 -54 68 -31 1 91 4 -50
-58 -127 13 -88 -24 65 -22 122
-103 116 34 121 70 -65 -55 -106
2 -89 50 -60 -26 -27 13 -36
-106 -103 28 -10 4 -127 60 -4
-116 17 26 -85 -72 86 -53 56
-127 -55 -112 43 98 -32 -64 21
-92 -4 -39 -37 4 23 -34 -95
-31 94 29 -62 -56 -8 76 -81
-37 69 -24 -26 -5 -23 -12 -19
-26 29 -127 15 121 -106 116 -24
-36 -71 121 37 -19 31 -38 17
47 9 -87 52 -100 76 56 5
-63 3 -1 -21 -8 61 -65 127
00000000: ce46 87ac eb42 4975 7f3f c35a d6d2 b21b
00000010: 3e18 b716 1ab0 3a59 fff5 e94e 81fd f93f
00000020: fdaf f666 2056 6226 a1e4 1e78 e92a 5dda
00000030: dd27 30a4 2cfd d4ed eb29 d60d be8f 1b89
00000040: ea15 312a 81ee 0351 5c4d c0c2 b0e0 d9fe
00000050: 1e81 a21b 143a f631 1248 300c e4e0 219a
00000060: 51bc 50b7 3255 9cd3 4a5f ae94 f023 aacc
00000070: 9b7f 4edd 0039 4362 5b39 9812 e511 07c1
00000080: dad7 0afa d1fb 8114 c820 60e9 51ac b1ec
00000090: 6cca 44e1 015b 04ce c681 0da8 e841 ea7a
000000a0: 9974 2279 46bf c996 02a7 32c4 e6e5 0ddc
000000b0: 9699 1cf6 0481 3cfc 8c11 1aab b856 cb38
000000c0: 81c9 902b 62e0 c015 a4fc d9db 0417 dea1
000000d0: e15e 1dc2 c8f8 4caf db45 e8e6 fbe9 f4ed
000000e0: e61d 810f 7996 74e8 dcb9 7925 ed1f da11
000000f0: 2f09 a934 9c4c 3805 c103 ffeb f83d bf7f
